python/atc/Optimizayion/code_module/module_1/quantized_model_test.tflite (tflite, 25128 bytes, 2 tensors)

sequential/quant_conv2d/Conv2D;sequential/quant_conv2d/LastValueQuant/FakeQuantWithMinMaxVarsPerChannel i1 [12, 3, 3, 1]
00000000: 3b32 2f04 4513 819c 39bc f04b ac64 6a7f
00000010: 6fdb 8681 9b50 10ad 6750 210f 2409 7f74
00000020: 4bc1 21ed 6547 b0e1 0676 81b9 6e8b e657
00000030: 8127 49a7 263f 0608 c91b 7f62 dbf9 1ba2
00000040: 2c36 4a7b e81e 0181 818e 9fb0 2f31 1a3d
00000050: 2a71 2da7 0558 219c ed7f 9981 daf2 4b3f
00000060: 782a ee1f 2960 e628 f23e 7f3a
59 50 47 4 69 19 -127 -100
57 -68 -16 75 -84 100 106 127
111 -37 -122 -127 -101 80 16 -83
103 80 33 15 36 9 127 116
75 -63 33 -19 101 71 -80 -31
6 118 -127 -71 110 -117 -26 87
-127 39 73 -89 38 63 6 8
-55 27 127 98 -37 -7 27 -94
44 54 74 123 -24 30 1 -127
-127 -114 -97 -80 47 49 26 61
42 113 45 -89 5 88 33 -100
-19 127 -103 -127 -38 -14 75 63
120 42 -18 31 41 96 -26 40
-14 62 127 58

sequential/quant_dense/MatMul;sequential/quant_dense/LastValueQuant/FakeQuantWithMinMaxVars i1 [10, 2028] scale=0.011445905 zero_point=0
00000000: 0503 0508 0006 01fd 0905 ff01 fbff 0601
00000010: f6fd f907 04fa 08f9 f8f8 fcfa f0e8 fbfd
00000020: fdf0 fbec fdec fdfd eef5 edfa fbee ebf0
00000030: eaef fef1 eef7 e7ec 01f1 f2fa 00f7 00f0
00000040: eff3 e5f1 fff7 f8fb faf6 fee9 e3f5 e1ed
00000050: f8eb f3fe 0bef f9f6 fcf9 f0f6 02f2 f7f5
00000060: fbf9 faf7 01f4 f2f7 f7ff fcf2 f7f0 fae9
00000070: ebf2 e8e7 f5ea f3f3 fbf1 fcf1 01fc f3f5
00000080: fc00 f9ec fefb 07fe f808 f8f8 07ff fa05
00000090: 0106 04fb fffc f708 0402 0000 0502 070a
000000a0: 0407 0708 0500 05ff e3f0 fdf9 e7e5 e9fd
000000b0: fee3 eeef f0f6 f7f2 f8f9 fce8 ff03 f0f9
000000c0: f3fd 0002 fef8 04f8 fffb fbfb f7f6 01fd
000000d0: fdf9 fcfe 02fd f7f9 fef7 0001 02fa 01f8
000000e0: fc00 fbfd 01fc 06f3 0b02 f8fe 010a 00fc
000000f0: 04fc 04fa 0903 f9f4 0804 00f7 fffa 01f6
0.057229526 0.034337714 0.057229526 0.09156724 0.0 0.06867543 0.011445905 -0.034337714
0.10301314 0.057229526 -0.011445905 0.011445905 -0.057229526 -0.011445905 0.06867543 0.011445905
-0.11445905 -0.034337714 -0.08012134 0.08012134 0.04578362 -0.06867543 0.09156724 -0.08012134
-0.09156724 -0.09156724 -0.04578362 -0.06867543 -0.18313448 -0.2747017 -0.057229526 -0.034337714
-0.034337714 -0.18313448 -0.057229526 -0.2289181 -0.034337714 -0.2289181 -0.034337714 -0.034337714
-0.20602629 -0.12590496 -0.2174722 -0.06867543 -0.057229526 -0.20602629 -0.240364 -0.18313448
-0.25180992 -0.19458039 -0.02289181 -0.17168857 -0.20602629 -0.10301314 -0.28614762 -0.2289181
0.011445905 -0.17168857 -0.16024268 -0.06867543 0.0 -0.10301314 0.0 -0.18313448
-0.19458039 -0.14879677 -0.30903944 -0.17168857 -0.011445905 -0.10301314 -0.09156724 -0.057229526
-0.06867543 -0.11445905 -0.02289181 -0.2632558 -0.33193123 -0.12590496 -0.35482305 -0.2174722
-0.09156724 -0.240364 -0.14879677 -0.02289181 0.12590496 -0.19458039 -0.08012134 -0.11445905
-0.04578362 -0.08012134 -0.18313448 -0.11445905 0.02289181 -0.16024268 -0.10301314 -0.12590496
-0.057229526 -0.08012134 -0.06867543 -0.10301314 0.011445905 -0.13735086 -0.16024268 -0.10301314
-0.10301314 -0.011445905 -0.04578362 -0.16024268 -0.10301314 -0.18313448 -0.06867543 -0.2632558
-0.240364 -0.16024268 -0.2747017 -0.28614762 -0.12590496 -0.25180992 -0.14879677 -0.14879677
-0.057229526 -0.17168857 -0.04578362 -0.17168857 0.011445905 -0.04578362 -0.14879677 -0.12590496
-0.04578362 0.0 -0.08012134 -0.2289181 -0.02289181 -0.057229526 0.08012134 -0.02289181
-0.09156724 0.09156724 -0.09156724 -0.09156724 0.08012134 -0.011445905 -0.06867543 0.057229526
0.011445905 0.06867543 0.04578362 -0.057229526 -0.011445905 -0.04578362 -0.10301314 0.09156724
0.04578362 0.02289181 0.0 0.0 0.057229526 0.02289181 0.08012134 0.11445905
0.04578362 0.08012134 0.08012134 0.09156724 0.057229526 0.0 0.057229526 -0.011445905
-0.33193123 -0.18313448 -0.034337714 -0.08012134 -0.28614762 -0.30903944 -0.2632558 -0.034337714
-0.02289181 -0.33193123 -0.20602629 -0.19458039 -0.18313448 -0.11445905 -0.10301314 -0.16024268
-0.09156724 -0.08012134 -0.04578362 -0.2747017 -0.011445905 0.034337714 -0.18313448 -0.08012134
-0.14879677 -0.034337714 0.0 0.02289181 -0.02289181 -0.09156724 0.04578362 -0.09156724
-0.011445905 -0.057229526 -0.057229526 -0.057229526 -0.10301314 -0.11445905 0.011445905 -0.034337714
-0.034337714 -0.08012134 -0.04578362 -0.02289181 0.02289181 -0.034337714 -0.10301314 -0.08012134
-0.02289181 -0.10301314 0.0 0.011445905 0.02289181 -0.06867543 0.011445905 -0.09156724
-0.04578362 0.0 -0.057229526 -0.034337714 0.011445905 -0.04578362 0.06867543 -0.14879677
0.12590496 0.02289181 -0.09156724 -0.02289181 0.011445905 0.11445905 0.0 -0.04578362
0.04578362 -0.04578362 0.04578362 -0.06867543 0.10301314 0.034337714 -0.08012134 -0.13735086
0.09156724 0.04578362 0.0 -0.10301314 -0.011445905 -0.06867543 0.011445905 -0.11445905
